data/frontalization_weights.npy (npy, 149184 bytes, 1 tensors)

array f8 [137, 136]
000000 4b ed a5 aa 31 8d cb 3f 56 b0 12 15 70 f3 97 bf
       0.21524639923505115 -0.02338957909221081
000010 1d e7 23 be 94 af a4 bf fc 53 ba 04 4a ad 8a bf
       -0.04040207692191997 -0.013025835294039105
000020 c3 82 26 61 14 86 93 3f 63 a2 b2 41 ea 17 9a 3f
       0.019066160611717075 0.025481853732943437
000030 f6 0e e7 53 43 f3 a5 3f 63 89 84 2a 82 1b ac 3f
       0.04287157439423865 0.054897372903968365
000040 f7 0a cb 09 27 97 11 3f f7 ac 57 19 df 84 aa bf
       6.710220118137296e-05 -0.05179497894627077
000050 ac 6c 8f a2 3d 85 a9 bf 0d e1 20 f2 18 7d a0 bf
       -0.04984467133882595 -0.03220441775960312
000060 5d 0b 77 d0 cf a7 85 bf 71 4f 26 41 94 44 85 3f
       -0.010573981808993766 0.010384710539063953
000070 5a 58 a1 d7 23 3b 88 3f af 64 d1 97 e6 0c 8f bf
       0.011831550615323195 -0.015161324985614703
000080 85 0f 67 f6 ec f6 c4 bf bf ce db 1b 9d 24 ae bf
       -0.16378557235122684 -0.05887309041091048
000090 72 cd 83 03 84 b4 b3 bf ce 34 95 34 0a 0c b4 bf
       -0.07697320066272598 -0.07830871375809353
0000a0 78 9b f7 18 65 3d b4 bf b2 ec b9 d5 fc 3c b2 bf
       -0.07906181201506779 -0.07124309747625793
0000b0 5b e3 7f b5 b9 2e 77 bf 0f 81 44 7c 23 ca 8a 3f
       -0.0056597952134261565 0.013080861310812012
0000c0 84 22 65 30 9b c1 a4 3f 9a 40 fe 2f 54 d7 b1 3f
       0.040539598138427585 0.06969190761288005
0000d0 06 f4 07 67 9c 3e ba 3f a9 72 02 61 d4 e2 a4 bf
       0.10251786723524967 -0.04079307254980808
0000e0 d2 cb 52 3f 2f 52 9c bf 56 5c 56 dc 23 7b 83 bf
       -0.02765725921626567 -0.009512214814817604
0000f0 c3 ab 41 03 14 54 8b 3f 84 44 fa 79 a5 19 a7 3f
       0.013343960141545602 0.04511754144653771
000100 3d 54 07 57 3f 75 a1 3f e5 57 dc 36 23 76 93 3f
       0.03409765183793254 0.0190053465112995
000110 6d 14 e8 42 52 c3 79 bf 00 31 9c 4b 7f 4d 95 bf
       -0.006289788564122306 -0.020803441038013126
000120 89 07 24 f5 72 1d af bf cf e1 36 02 ed 96 ac bf
       -0.060771553444296585 -0.0558389725878815
000130 aa 43 80 c5 ab d7 a9 bf e4 a9 6a 7a cb f0 9a bf
       -0.0504735640134933 -0.026309184405059485
000140 4b 58 d2 f8 2f b7 a8 bf eb 95 8e 00 f4 87 ac bf
       -0.04827260887502457 -0.05572474009322178
000150 be 75 fb 3f bf 5d 9b 3f 90 9d 04 21 48 5c aa 3f
       0.026724804191749156 0.05148530390789141
000160 8e 42 08 68 97 f5 ac 3f 2a 20 5a c3 c9 64 b1 3f
       0.056561213921786466 0.06794415492379416
000170 cc 20 3f be ed 16 ad 3f 89 cd 3b c7 bc c1 a5 3f
       0.05681555697771187 0.04249372417498438
000180 6c 8c 9b b6 1a 4e 98 3f 12 e6 1e ff f2 f7 99 3f
       0.023735444446071716 0.025359913655597373
000190 2a 2e bb 0e e1 41 a0 3f 98 75 d2 1c 3b 70 7b 3f
       0.031752617882002745 0.006698828609981965
0001a0 dc 92 d5 6d 49 10 a3 bf 2e e6 ee cc 17 f3 a3 bf
       -0.03723363366842644 -0.03896402718187307
0001b0 8e 22 0b 88 a6 9e b1 bf 9a 78 97 b6 26 56 9d bf
       -0.06882706471800246 -0.028648953337203943
0001c0 55 d5 84 27 15 10 5c bf e5 c7 91 f4 1d 67 9d 3f
       -0.0017128187738085405 0.028713672687849984
0001d0 46 8c a2 5c 52 9e a8 3f e1 e0 77 4d 8a a6 a9 3f
       0.048082898910501146 0.05009872623117118
0001e0 33 5d 42 f6 87 ea 9f 3f 19 8d ea f0 6a c2 a1 3f
       0.031168102651091444 0.034686414631574354
0001f0 2a 2b 4c df 54 6f 81 3f ce 5c 3f b6 e1 9e 9f bf
       0.00851312929582589 -0.03087952303743862
000200 ba bd 68 a3 c7 c0 b3 bf e7 74 d8 f1 44 da 89 bf
       -0.07716033687096671 -0.012623346930065128
000210 2a 75 2c b1 b4 01 9a 3f 60 4b 8f aa 90 d6 a5 3f
       0.025397132219145004 0.0426526268198788
000220 c9 0a cb c0 53 1e 10 bd b2 db 7c 91 f7 6f 0a bd
       -1.431607318989806e-14 -1.1740551350066904e-14
000230 ff f5 cd 80 f3 a5 e3 bc 8e 42 a3 23 a7 66 fa 3c
       -2.1813936005411186e-15 5.862196914995883e-15
000240 30 80 9b 28 68 70 10 3d e8 4a 77 9c 13 99 17 3d
       1.4600844386384206e-14 2.0959194818008116e-14
000250 87 cb 6c 9b 82 77 1b 3d db 2c 61 9e ae 04 13 3d
       2.439545157584611e-14 1.6891634286381068e-14
000260 b2 de 1c f2 e5 8a 03 3d 1a 60 ef 66 7d 59 10 3d
       8.6786449998671e-15 1.4521335009157095e-14
000270 ca 23 fd ea 50 c0 17 3d 25 78 89 a4 84 c4 10 3d
       2.1095334110255397e-14 1.489266396188521e-14
000280 c8 25 16 18 78 39 0f 3d b1 03 2c 04 71 e2 e8 3c
       1.38664585326767e-14 2.7627385925466705e-15
000290 70 03 a3 06 61 88 e2 bc e5 3f 86 2c 61 71 02 bd
       -2.0575464108187283e-15 -8.19028800620496e-15
0002a0 35 6a 90 1e be ff 13 bd 56 4e 01 c0 8a 45 27 bd
       -1.7762675545261276e-14 -4.133875181240132e-14
0002b0 17 38 10 78 23 2b 1b bd 61 28 2e 9b 15 2e c0 bc
       -2.4130484245388985e-14 -4.490856904137193e-16
0002c0 9d d0 6b 73 35 35 15 3d 28 b7 03 3c 76 2d 10 3d
       1.883635189644035e-14 1.4368582203386223e-14
0002d0 de f7 dd e5 0d a3 0b 3d fd a6 a4 ff 05 42 0c 3d
       1.227326276849293e-14 1.254903027335256e-14
0002e0 21 a9 7d f9 0f f4 02 bd ca 42 79 c8 26 c5 21 bd
       -8.416986553361267e-15 -3.1566079586913855e-14
0002f0 c9 fb ef 24 f1 d5 24 bd d1 71 4b 21 d0 c3 e4 bc
       -3.70116574185296e-14 -2.305366404736119e-15
000300 09 ef 13 96 9a cf ce bc c3 85 36 d1 b8 b7 e7 bc
       -8.551757232592584e-16 -2.6331896482437465e-15
000310 fd b7 f6 6c 5f c5 f4 bc bc 13 e2 84 25 36 d1 bc
       -4.612085675527455e-15 -9.554307342866162e-16
000320 8a 98 79 a6 73 51 dd bc cc b8 7e 9b 73 4a dd bc
       -1.6274854205091927e-15 -1.6259675011380182e-15
000330 cd 87 92 e9 d7 b8 e8 bc ea b4 15 81 7f a9 ce 3c
       -2.744698308815014e-15 8.510442853288973e-16
000340 c1 bb 9f d2 f7 6b 0f bd 77 a7 01 a7 20 54 09 bd
       -1.3954060229554998e-14 -1.1248168279292344e-14
000350 d9 4f f5 c1 19 81 01 bd cf 6f e7 08 c2 c4 f8 bc
       -7.773470436473643e-15 -5.499730834257666e-15
000360 0e 87 17 be 52 ba e1 bc 4f 5a 4d a7 e4 24 02 bd
       -1.9681839548217415e-15 -8.057605238983366e-15
000370 66 30 41 b0 50 70 fd bc 87 69 6a ce aa 77 0c bd
       -6.536711440734531e-15 -1.2642087398028622e-14
000380 68 77 5b f3 f0 4d 16 bd ab 7e 0e bb 8b 29 13 bd
       -1.981033813844834e-14 -1.7019531003302196e-14
000390 2d 48 16 55 9c ca f9 bc 49 65 d7 75 52 cc 00 bd
       -5.726851868876109e-15 -7.45986971954927e-15
0003a0 57 07 3e 18 15 b6 18 3d 18 cd b3 79 93 5b 06 3d
       2.194800730450549e-14 9.928821785195573e-15
0003b0 da 72 b7 6e 20 cd fd 3c a4 31 27 39 42 da f7 3c
       6.61721258465273e-15 5.2963351452702634e-15
0003c0 45 8e d0 63 df 87 ca 3c 2c f4 65 d8 b3 a6 0e 3d
       7.363763046380461e-16 1.3611859071708666e-14
0003d0 b5 af 2a 8a 3c c9 1d 3d 87 35 0b d2 7f 1f 20 3d
       2.6455353474762174e-14 2.864027972257361e-14
0003e0 7f ab a9 10 66 7c 17 3d 3f 5c 9f 49 95 f5 20 3d
       2.085969831503491e-14 3.012578488503932e-14
0003f0 2d 2f b9 ef 2c 93 12 3d f0 fa 2f 4b 4c 80 18 3d
       1.6497829258584164e-14 2.1761405255105948e-14
000400 1b e5 93 cd 7e 16 14 3d 51 22 af 1b de 65 15 3d
       1.7841614728560743e-14 1.9005171082463563e-14
000410 26 5e 0d e4 6a fc 0e 3d c2 30 9b bd ce 1e 11 3d
       1.376055093187925e-14 1.5205918401724212e-14
000420 f0 df f6 63 d9 c9 1e 3d 38 c3 28 b7 ac dd fd 3c
       2.7345657618808164e-14 6.631565669681265e-15
000430 96 f7 29 29 06 80 08 3d 71 5f 80 0e 8f e6 05 3d
       1.0880227388508266e-14 9.725829195867992e-15
000440 aa 2a d0 0b 0d 81 d7 3f a4 2d cd c3 52 6a e1 3f
       0.3672516455996325 0.5442289184806453
000450 e2 2f f4 b1 1d 67 d3 3f 08 2f 74 79 32 ff c5 3f
       0.30316870096498694 0.17185049944270525
000460 56 58 a7 f2 f3 9e b1 3f 80 e7 2a 22 83 a4 69 3f
       0.06883167909777063 0.003130203361561834
000470 a3 64 8f 73 d1 01 af bf 8b bd fb a6 90 0f c1 bf
       -0.060560746532879926 -0.13328750756725713
000480 4a c0 be ba d4 4f b7 bf 9f 48 b7 f7 1d 08 a1 bf
       -0.09106187400061674 -0.0332650532615315
000490 f2 67 30 74 36 64 a7 bf b0 70 d4 5e 68 90 ae bf
       -0.045686437304723784 -0.059695493293675184
0004a0 bc 08 78 33 fa ed b5 bf fc a1 12 0f e3 3a c0 bf
       -0.08566249615253957 -0.12679708705879011
0004b0 ce fe db a4 5e 35 c9 bf 52 c4 54 14 d6 76 d4 bf
       -0.19694121408246307 -0.3197531889482593
0004c0 7a 91 ac d2 a4 9f c9 bf 55 91 54 a5 9f 4c d8 3f
       -0.2001844433481315 0.37967673440495747
0004d0 59 f9 de 0e 67 fc d2 3f 3a 6c 38 9e ae 33 cf 3f
       0.29665543033833824 0.24376471257787263
0004e0 7f 78 3f f0 77 e3 c6 3f bc 7e df b4 55 00 c2 3f
       0.178816788013993 0.14063521701517867
0004f0 fa b2 01 56 2d 3c c5 bf 1c 62 b5 66 17 64 c8 bf
       -0.1658989591554912 -0.19055454745354516
000500 3f 9b 7f fd 10 81 d0 bf 47 2e 65 af c3 3b d3 bf
       -0.2578775859423565 -0.30052272919121886
000510 71 70 0c da e0 87 d7 bf 93 9c 8c b0 c2 1f a8 3f
       -0.36766835492904365 0.047117313434051365
000520 ee f3 1c 13 8e 3c 99 3f 38 5a e5 02 ef 11 89 bf
       0.0246450614133557 -0.01224123694980249
000530 49 96 0a 52 1d 52 a8 bf fe 1c 63 84 bd 51 a1 3f
       -0.04750148416978257 0.033826754007856494
000540 09 75 2b fa 18 1d 84 3f d5 54 93 74 74 a5 92 bf
       0.009821124205184011 -0.018209285369114554
000550 df 1e 17 fa bc 9a 9f bf d0 d3 b5 ba 00 ad a4 bf
       -0.030863716854382935 -0.040382406989841635
000560 64 0f a7 a8 10 df d5 3f eb 54 90 bd 7e d9 d1 3f
       0.34173981161096934 0.2788998461922591
000570 56 64 e7 07 c5 53 cb 3f 4a 7e f8 62 a5 af c6 3f
       0.213493946894945 0.17723529179146374
000580 76 67 92 73 9a 98 cd 3f de 71 fa 1c 20 47 d3 3f
       0.23121958392294645 0.3012161524764262
000590 30 a1 e9 92 0d 11 c7 bf 76 49 7f 2e 04 7a cc bf
       -0.18020791696040694 -0.22247364302036104
0005a0 bc 70 b7 37 5f 9b d2 bf 0f 40 cd 82 5a 69 d6 bf
       -0.2907331508738584 -0.3501802708969998
0005b0 46 da 3a d0 35 35 d3 bf d4 11 58 32 bc b0 cc bf
       -0.3001226933951425 -0.22414352853969766
0005c0 5b 73 4c 95 3a ae be 3f 84 00 5d c7 db d5 a9 3f
       0.1198460211275693 0.05045973595270062
0005d0 82 ca fe 4a a0 d6 92 bf 8e 76 b1 9f a8 59 8c bf
       -0.01839685876593445 -0.013842885373544857
0005e0 7e 9a 9e 0a 37 8a 9a 3f 48 2f 7a 39 a6 90 80 bf
       0.025917873404660778 -0.008088396672313217
0005f0 74 96 8a 9c 62 00 a4 bf 10 3a b7 7f 4d e9 99 bf
       -0.03906543885140659 -0.02530404178633644
000600 d0 29 3d de ed 60 86 bf 82 5d e6 1a d7 3d a0 bf
       -0.010927065224355298 -0.031721803697275966
000610 c2 df fc 21 47 9f 96 bf 66 55 27 4c 6d 0b a3 3f
       -0.02209197182602885 0.03719655565843531
000620 43 7b f2 9b 39 ca ba 3f 44 14 ad 1b d6 ef 96 bf
       0.1046482091646626 -0.02239927810594035
000630 30 df f7 00 2a 3b 8a bf c8 77 47 7f 50 7d 95 3f
       -0.012808159021900772 0.020985849159721487
000640 0e 2b 91 ff 2d 91 94 bf 80 d2 d6 47 6d cc 27 3f
       -0.020085066531730304 0.0001815684699245819
000650 d4 df d0 cb 8b 24 9b bf d0 de 7c ba 18 35 9a bf
       -0.026506599726616134 -0.02559317243796394
000660 9a 0b 06 31 54 9b 19 3d d8 58 fd 85 8c 91 19 3d
       2.2743365777625594e-14 2.270943474769057e-14
000670 ae 07 d5 05 99 20 e5 bc a0 72 84 21 6c ab 18 bd
       -2.345605370196424e-15 -2.1911022948914936e-14
000680 3a dd e9 00 a6 11 28 bd ac 13 e5 24 2b cb 30 bd
       -4.27550248777122e-14 -5.966294863324964e-14
000690 1e 4b f7 68 75 f9 30 bd 7d 7f a1 c4 fb 3f 2a bd
       -6.030535283507581e-14 -4.662925232808623e-14
0006a0 46 37 df fb 78 8e 1b bd c3 eb 78 f7 bd 3c 2b bd
       -2.447511843632885e-14 -4.838311735546017e-14
0006b0 1b 20 78 ac d2 e9 2a bd c0 ee 6f 13 66 01 21 bd
       -4.780775042631352e-14 -3.02077719372455e-14
0006c0 16 1e bc dd 16 f3 24 bd 2a 79 bb 70 cd 01 f5 bc
       -3.7213907794938085e-14 -4.664500124180194e-15
0006d0 08 83 50 06 5d 3c eb 3c c9 72 61 4e 05 8c 14 3d
       3.0237806085416158e-15 1.824936287934926e-14
0006e0 57 07 02 40 32 66 30 3d e8 81 5c ab 1c 8d 40 3d
       5.826167727684154e-14 1.176034822238604e-13
0006f0 dc 85 fd a2 f4 87 33 3d 0f f7 78 f2 18 17 fa bc
       6.938832303231237e-14 -5.793193572284563e-15
000700 6a 6a 1c a8 44 c2 25 bd e2 a4 47 a0 82 7b 22 bd
       -3.865149998790083e-14 -3.2831447686735915e-14
000710 6d 29 b2 45 61 89 0e bd 71 87 78 a7 62 c3 19 bd
       -1.3560992554114063e-14 -2.2882339661626594e-14
000720 9e cf 3c 01 2a 52 11 3d a6 70 bd 9b 3e 88 3c 3d
       1.538409705661786e-14 1.0136675615423933e-13
000730 95 88 6f 95 1e ed 39 3d 89 0d 79 70 43 11 02 3d
       9.210853562795893e-14 8.02355306318435e-15
000740 b0 51 4a 77 ba c9 e3 3c d1 ff 49 19 fb 3f 10 3d
       2.1969094871090572e-15 1.4432832896282928e-14
000750 00 42 f5 09 7c 44 0f 3d 33 a9 6f ee 92 76 d8 3c
       1.388556722198912e-14 1.3579792565502718e-15
000760 46 ab 04 f7 44 8a ce bc 74 fa 83 39 91 aa e6 3c
       -8.476584662267696e-16 2.5164624220649817e-15
000770 69 61 28 00 b4 90 fd 3c b5 a1 db b1 f6 58 f3 bc
       6.5648034989058845e-15 -4.2960111608688585e-15
000780 0a c9 40 76 78 c1 26 3d 3d 22 7f 45 dd fa 23 3d
       4.042232211730761e-14 3.5491500999825e-14
000790 73 69 88 b7 bd 04 16 3d 22 4c ba 63 6f e9 16 3d
       1.9556374164991723e-14 2.034981598326403e-14
0007a0 36 cd 70 f3 dd ea fb 3c e8 4c 56 11 4f 6c 24 3d
       6.1989189787004325e-15 3.6278680464555677e-14
0007b0 f1 70 3e 4e 4d 7c 20 3d 7a f8 e9 d1 89 4b 22 3d
       2.928422764806684e-14 3.249857576994204e-14
0007c0 8b 5c 6e 70 1d 81 2d 3d 03 2e d3 26 f7 fa 2b 3d
       5.2410263606892054e-14 4.970305719894706e-14
0007d0 9f d6 18 33 2b 0b 17 3d f7 73 cc d3 24 57 1b 3d
       2.0466853033296054e-14 2.4283158320227843e-14
0007e0 a3 b4 5b d0 81 1a 30 bd fe 93 52 62 8a a9 19 bd
       -5.721127856939408e-14 -2.279267248128438e-14
0007f0 67 e8 d9 3e c2 b8 16 bd 76 94 18 ca f7 b8 13 bd
       -2.018093599014545e-14 -1.7517126386543362e-14
