data/frontalization_weights.npy (npy, 149184 bytes, 1 tensors)

array f8 [137, 136]
0.23054452612669113 -0.007740047142313772 -0.02640185419710768 -0.00026663804351737864 0.0304029416442103 0.03525502403151144 0.050544750921574115 0.05942011471929143
0.0009757806009384903 -0.05477168162259957 -0.05656306420903246 -0.04189681415977717 -0.022751715554432072 -0.003946663016056371 -0.004042751852877319 -0.03293016120149053
-0.182372823759648 -0.05315702409806535 -0.07406955520484884 -0.07878446136220658 -0.08217539281883103 -0.07737428825498516 0.0032923634159926635 0.018667846603005123
0.04248975114813122 0.06727659665974578 0.09579334849027894 -0.04020639645348445 -0.02707496976555504 -0.00901066282703772 0.013912172697401817 0.048721092979802746
0.03605219136923001 0.019101783434997143 -0.008322234043838023 -0.02455659009530748 -0.05998669725896785 -0.057087158289083624 -0.05369580863927056 -0.031144070061418568
-0.05109477510446477 -0.056496732197296444 0.032036821922146554 0.05505942414315101 0.05790928434959384 0.0671612955309498 0.05790760160985883 0.045813977270629545
0.027899789711491235 0.028295142596190974 0.03351880382754918 0.0066090163264258955 -0.038671266460237275 -0.04185044046086717 -0.07328106322515682 -0.03171090584917071
-0.003357097429811623 0.028644075512180515 0.049933783421573966 0.05308237346794685 0.03418966813688447 0.03664610307390735 0.008581744770504891 -0.03236154864056052
-0.08053925475352954 -0.014159849767648265 0.025035087039535133 0.044155486495588585 -1.4219508400407363e-14 -9.422231640033233e-15 -4.216755523515291e-16 9.183037473883217e-15
1.7558397431928137e-14 3.127583719797373e-14 3.5046746195040285e-14 1.8509825926129233e-14 1.1830474977044338e-14 1.2657519888493187e-14 4.5045037566463565e-14 3.215059565155806e-14
2.4339207601258524e-14 8.869162157251106e-15 2.0099909744230296e-16 -1.2187045428094033e-14 -2.0266665710559114e-14 -8.351650817540397e-14 -3.222621861109812e-14 -8.739345210864811e-15
3.5338084358582185e-14 3.647729427727484e-14 2.619215130369095e-14 1.1281358656787008e-14 -1.0062132466975718e-14 -6.225258183201471e-14 -1.0002102481176234e-13 8.913923298239563e-15
-1.9770757607910225e-15 -6.9527379879770015e-15 -1.6075440310236433e-14 2.140324077152133e-15 -1.7769291388643945e-15 -7.512595077564019e-15 -7.250545632152469e-16 2.3367441937099637e-15
-2.705591659257152e-14 -1.9424746866603982e-14 -6.626913550575683e-15 1.7191490107309472e-15 -1.0366666801814626e-14 -2.038786211266542e-14 -5.9470765527156555e-15 -1.2516128096542634e-14
-1.7203232299863717e-14 -2.496466375079169e-14 -1.565413670591867e-14 -4.923673336947385e-15 4.6860250162039913e-14 2.5832187027694514e-14 6.5044523107508e-15 8.913982639352357e-15
2.2374142167391837e-15 2.6509418473792412e-14 5.497011749313665e-14 3.746689348185955e-14 3.598414833814847e-14 3.396867860819504e-14 4.5202370129393656e-14 4.3581841697322526e-14
4.8893434121704275e-14 3.4603773067528805e-14 3.512234418527959e-14 3.672974329145688e-14 4.6664636991990346e-14 1.60169528624877e-14 1.5193457814027425e-14 1.6287580790298225e-14
0.38153655457743973 0.557587043027874 0.3191487234918457 0.1878614187643869 0.08458267411439416 0.016909108723512922 -0.049427598668296574 -0.12513382780750934
-0.08811275836100313 -0.035893309796576164 -0.05246792178500412 -0.06982414298865411 -0.09835096207102109 -0.1400173744389544 -0.21024862850925408 -0.3310072607253335
-0.2115849253577259 0.390219972501168 0.30880165477047194 0.2541050147482302 0.18551135592958573 0.14385238876676051 -0.17090656504964336 -0.19905494248400415
-0.2698216897372927 -0.3142370970852143 -0.37984416459669706 0.045306040543950765 0.02316454659181206 -0.013398903252249319 -0.04839094692325743 0.03407477924931791
0.00954604786468505 -0.019055892168333057 -0.0322649653642181 -0.04298834070925533 0.34977674267327286 0.2866852292016453 0.21956861104336883 0.18066681449571412
0.23630961905652087 0.3077707474400438 -0.185428221191156 -0.22974221907134432 -0.29949052146263444 -0.35946515482078967 -0.3083390172635838 -0.23091421875032503
0.12535144567602707 0.054404210363053915 -0.017313036866618413 -0.013951592843437855 0.023825377051630563 -0.013579495611354693 -0.04650472074006347 -0.030584081909974338
-0.013335623017427328 -0.03224148674317738 -0.021195819415197555 0.04052268938974562 0.10900423681809011 -0.021521410515475743 -0.013266985728306181 0.01876337882749791
-0.026420663569296406 -0.002121747031950113 -0.026446300316207295 -0.024043635680005653 4.511564149883922e-14 2.8063046052952903e-14 5.574417789180697e-15 -1.6384418044726528e-14
-4.087810298453149e-14 -8.430154650660096e-14 -8.574106958034875e-14 -4.002359657590158e-14 -3.7788808496054546e-14 -3.9962243258430657e-14 -9.671873258724813e-14 -7.327993664250847e-14
-5.286898825789552e-14 -2.189947444769019e-14 4.574919345627883e-16 2.8648180333146887e-14 5.0005202411088285e-14 2.1243255845639972e-13 1.0227094440816009e-13 1.2673695057513088e-14
-9.601451247682013e-14 -1.1469673814607912e-13 -8.776464589757284e-14 -5.800550644231171e-14 2.949046678894231e-14 1.5255748728357652e-13 2.5228871402794425e-13 -2.4944425468125634e-14
-7.293469401630192e-15 1.7556297184396603e-14 3.638396742565468e-14 -2.6053506509239394e-15 5.920969366627531e-15 1.7665255242863396e-14 2.486717507379371e-15 -3.170102044768793e-15
6.667494532437093e-14 4.8740626769925066e-14 1.3251184474446468e-14 -3.9108760767426774e-15 2.6670585271138353e-14 4.752337543151031e-14 7.690491516801932e-15 3.00228950841172e-14
4.247998705862007e-14 6.433622520342944e-14 3.804608151043622e-14 1.3077309673995746e-14 -1.2460819643993367e-13 -6.188071990564496e-14 -2.0025363347053826e-14 -1.8227839616484125e-14
00000000: ce33 fea7 7b82 cd3f 6022 8815 07b4 7fbf
00000010: 1444 5271 1609 9bbf a23a 41ad 7179 31bf
00000020: 1c9e 41e0 f221 9f3f 9a56 784e f20c a23f
00000030: f79f 6268 00e1 a93f 204a e332 506c ae3f
00000040: 8cef 71e2 70f9 4f3f 5cc9 a1aa 080b acbf
00000050: 81f1 e07d d5f5 acbf ece3 3ecd 7f73 a5bf
00000060: f3cc efc8 394c 97bf 6414 5149 602a 70bf
00000070: ad39 e7ef 218f 70bf 6427 d3da 38dc a0bf
00000080: bf09 dd20 fe57 c7bf 7395 1bc0 6537 abbf
00000090: 7aed 3bed 38f6 b2bf add0 fbec 372b b4bf
000000a0: 795d b150 7209 b5bf 883f 9b25 cdce b3bf
000000b0: a0f1 5726 96f8 6a3f dd2b 96fa a91d 933f
000000c0: 9c5b 3177 37c1 a53f 2496 70fe 0939 b13f
000000d0: 05a9 f0b2 e985 b83f e027 b7cb ee95 a4bf
000000e0: 48a5 bb76 8ab9 9bbf 2160 42b1 2e74 82bf
000000f0: 685e 0336 fc7d 8c3f 5e7f f299 f8f1 a83f
00000100: 438c c2cd 6e75 a23f 4327 98fc 6a8f 933f
00000110: 7d2f 6258 3f0b 81bf 3247 71dd 5c25 99bf
00000120: 4c3a d88d 93b6 aebf b112 bf2b 873a adbf
00000130: 0b6d 135c 047e abbf 5233 8329 3be4 9fbf
00000140: dbea 2328 1829 aabf 5f8c 3cc2 23ed acbf
00000150: 45c7 d85c 2167 a03f 1f17 10b4 bf30 ac3f
00000160: 5d21 d524 49a6 ad3f 94c7 dc8f 7b31 b13f
00000170: ec51 35ae 10a6 ad3f f371 27fc ed74 a73f
00000180: c828 8131 c391 9c3f 2e5e 58e0 66f9 9c3f
00000190: e810 7b6c 6029 a13f 3011 b14f 0e12 7b3f
000001a0: b8b5 7b61 b8cc a3bf 918a 34c2 6b6d a5bf
000001b0: 20d9 f739 8cc2 b2bf 43f2 186f 693c a0bf
000001c0: 26f4 74f5 5780 6bbf 2125 325e df54 9d3f
000001d0: f2bc 85bd eb90 a93f 5ee9 13e4 9c2d ab3f
000001e0: 3a9d 04e5 4e81 a13f bee0 742c 47c3 a23f
000001f0: 4435 0e49 4e93 813f 1145 1e62 b191 a0bf
00000200: 51eb 3579 389e b4bf 77b9 58dd d6ff 8cbf
00000210: 9769 5940 cca2 993f f702 e044 8c9b a63f
00000220: 16eb 7d87 7e02 10bd 6335 20f7 8b37 05bd
00000230: 21ef bc7e 8a62 bebc 3854 0523 a9ad 043d
00000240: 700d 1a0e ddc4 133d 6163 9dba 529b 213d
00000250: 7654 21b7 c4ba 233d f9ad 3a16 18d7 143d
00000260: f46d 10f4 cda3 0a3d 7ae1 6b3d 9080 0c3d
00000270: ab37 3f8f ac5b 293d 1551 9e9e 6319 223d
00000280: 017d c888 4c67 1b3d afff d150 b9f8 033d
00000290: 7706 3ccd 8ef7 ac3c e2b6 d676 5a71 0bbd
000002a0: 38f9 7bfb 77d1 16bd 584d f9a6 ff81 37bd
000002b0: 0801 479d 4924 22bd f884 3fb7 e3ad 03bd
000002c0: a89e 4932 c1e4 233d fff4 c29f ee88 243d
000002d0: cc23 b9a5 5f7d 1d3d bf2e 04b0 4267 093d
000002e0: 3ead dda8 6ca8 06bd 2965 ea71 c585 31bd
000002f0: 4441 273f 4627 3cbd 1a73 eae4 8612 043d
00000300: 7ebe d189 d3ce e1bc d2e4 6a0d f64f ffbc
00000310: e0df 1222 6e19 12bd 41c9 e655 4047 e33c
00000320: 0129 73d3 5101 e0bc 839d 8c59 b7ea 00bd
00000330: 43d7 0caf 721f cabc 9389 b34e 2a0c e53c
00000340: f665 b846 5676 1ebd 4d10 2a56 cdde 15bd
00000350: eb51 faa6 4fd8 fdbc 109b b5ea 2cf8 de3c
00000360: b171 c0fe f957 07bd f2f9 cab2 66f4 16bd
00000370: eed7 bc2f 83c8 fabc ae1d 8c7e 0e2f 0cbd
00000380: d088 707e 7e5e 13bd 6051 690d 931b 1cbd
00000390: ac3f fe69 ff9f 11bd 1a24 06df 9b2c f6bc
000003a0: 38fb 7c15 4661 2a3d 7093 cbf8 9e15 1d3d
000003b0: e9b2 4e79 1f4b fd3c 1c7a c2a6 8f12 043d
000003c0: 303e f93c 2027 e43c 2abf 1fd5 d1d8 1d3d
000003d0: c767 d160 07f2 2e3d 2ff1 fd63 8c17 253d
000003e0: 3ca9 0dc0 dc41 243d b646 a70a 671f 233d
000003f0: f166 4a1b 5972 293d 5680 fc28 ce88 283d
00000400: dfb5 0e55 4986 2b3d 7fd7 3ae4 ed7a 233d
00000410: d5f3 f5c9 a9c5 233d 08b8 4959 50ad 243d
00000420: 451f 553b 1545 2a3d 1b0c 6c85 9208 123d
00000430: e169 c24f 371b 113d 97cd 7156 9356 123d
00000440: 32df 084c 186b d83f 4c4c 4fc8 c0d7 e13f
00000450: b749 7dc4 ee6c d43f 4cf8 e2cc d70b c83f
00000460: 1a2a 21cb 35a7 b53f 0053 e313 9f50 913f
00000470: dcac 99ff 924e a9bf f73c 07a1 6204 c0bf
00000480: 0457 85c7 8e8e b6bf 4667 719f 9b60 a2bf
00000490: 1cb5 4f50 13dd aabf ee84 9bba fedf b1bf
000004a0: 460b a055 872d b9bf f225 0bde 16ec c1bf
000004b0: d4f0 bc53 6de9 cabf 5272 e313 392f d5bf
000004c0: e577 5eff 3615 cbbf c6dd 0831 5df9 d83f
000004d0: a826 0c04 68c3 d33f c0f7 05ae 4143 d03f
000004e0: 2e89 600b d6be c73f 1334 9a4c c169 c23f
000004f0: 4aab c72d 44e0 c5bf 05b9 09e2 a17a c9bf
00000500: 9414 4b31 c244 d1bf 36f1 cae9 751c d4bf
00000510: 793b 21e6 5d4f d8bf 2821 e574 5a32 a73f
00000520: d26c 2768 72b8 973f ae59 2a5a e270 8bbf
00000530: f46c eabc b2c6 a8bf 020d fddc 3f72 a13f
00000540: 4138 14db e08c 833f 47e9 a246 6383 93bf
00000550: d37e 1796 0885 a0bf c73e e95a 9102 a6bf
00000560: 26b8 abfd bd62 d63f 8cb5 ea00 0d59 d23f
00000570: aa67 d401 d31a cc3f c5a4 dd15 1720 c73f
00000580: 1afb c9c2 643f ce3f e1e8 ba13 84b2 d33f
00000590: 81bf e2a8 1cbc c7bf 8900 b66a 3168 cdbf
000005a0: 5037 c94a da2a d3bf 8870 0023 7a01 d7bf
000005b0: 7495 ce92 d3bb d3bf 8865 dbdc 988e cdbf
000005c0: 64a9 d723 840b c03f 764c 8c60 deda ab3f
000005d0: 96d8 8b3c 82ba 91bf cdd9 ea17 a792 8cbf
000005e0: 3ea9 01fd ad65 983f 2424 600c 91cf 8bbf
000005f0: da59 607d 77cf a7bf 4a7b 53fe 6e51 9fbf
00000600: 9063 da05 b54f 8bbf 8ed1 45c6 f481 a0bf
00000610: 0200 cd5c 5bb4 95bf 978f 59d3 63bf a43f
00000620: bf56 42a0 b3e7 bb3f 02a0 4f69 b509 96bf
00000630: b47c 8eae b82b 8bbf c3cc b409 b536 933f
00000640: 22ff dfb7 040e 9bbf f881 9a43 a061 61bf
00000650: da4d d52b bd14 9bbf 5bb4 b013 e59e 98bf
00000660: 14d9 8862 d965 293d f4cb 5950 9f98 1f3d
00000670: e68d aabb dd1a f93c da84 76aa 7c72 12bd
00000680: 5ebb d5ce 2703 27bd fa45 ad0d 91ba 37bd
00000690: dd0e 3191 4b22 38bd e8e4 fc15 0288 26bd
000006a0: bdb4 56f5 f045 25bd c9ac 498c 2a7f 26bd
000006b0: 8920 09b5 5139 3bbd 47da aa3c 60a0 34bd
000006c0: bfbe 4364 39c3 2dbd c636 7f00 18a8 18bd
000006d0: e3ac fa49 9e7b c03c 426f 334d a320 203d
000006e0: 03a4 ab57 8226 2c3d 2a5e f684 b0e5 4d3d
000006f0: a965 0bf0 65c9 3c3d 5d99 0746 e389 0c3d
00000700: 56f0 9623 9306 3bbd c52f f5af 6224 40bd
00000710: 34e9 2af6 1bb4 38bd efee 71bb bc53 30bd
00000720: b947 db2f 069a 203d b452 5476 7678 453d
00000730: 3670 c855 d4c0 513d b07a 0fbb bd15 1cbd
00000740: 9999 911b 666c 00bd be2d 8c15 42c4 133d
00000750: 7ac8 9178 7b7b 243d c8a7 e192 8777 e7bc
00000760: ad69 87b4 69aa fa3c 95b8 14c5 a9e3 133d
00000770: e446 18ed fa65 e63c f47d 97f4 c18d ecbc
00000780: 9506 0ca7 6fc4 323d 8cb9 6cbc 4370 2b3d
00000790: 2a14 5dab c9d6 0d3d 56cc a7e1 ee9c f1bc
000007a0: 190d dad7 4507 1e3d e0c8 9416 d7c0 2a3d
000007b0: 5683 013b 4451 013d 738a ed52 c1e6 203d
000007c0: 4a1f 28e6 02ea 273d a1f7 88e1 e91b 323d
000007d0: 1942 42a8 046b 253d c1ea 1f47 8e72 0d3d
000007e0: 7cec 2dc1 7b89 41bd 6f46 9ecd f96a 31bd
000007f0: d4ab b502 eb8b 16bd f8a5 702b d185 14bd
